checkpoint_episode_335.pth (torch_old, 88573 bytes, 6 tensors)

fc1.weight f4 [128, 37]
0.08972474 0.07183729 0.056799985 0.0745675 -0.03169448 0.099471204 -0.51478124 -0.1129217
-0.1588169 -1.115782 0.10934635 0.054677043 0.07966709 0.016278846 0.014915816 0.00988998
0.03207441 -0.036198616 -0.079586275 0.02087718 -0.05715722 0.025983978 -0.114210285 -0.021007705
-0.09290949 -0.05403722 0.009227266 -0.18320006 -0.113151796 -0.61404365 0.08111783 0.122202426
0.016531622 0.115073964 -0.15566917 0.025556445 0.0067736735 0.04526851 0.032603066 -0.010728282
-0.041608475 -0.076658234 0.06576001 -0.0020599216 0.10123754 0.13935792 0.18440676 0.19940564
-0.46891034 -0.2283572 -0.24798456 -1.1264513 -0.017828725 0.061081246 0.03437349 0.050315868
0.049918987 -0.05468808 0.17674416 -0.07193715 -0.16233185 -0.4031438 -0.040470082 -0.021516874
0.008890619 0.1527207 0.1429473 -0.1130976 -0.08990882 -0.03389719 0.08992411 0.18675552
-0.0027422125 -0.016754212 -0.2880196 -0.15037365 -0.08715578 0.011730406 0.040687777 0.108756855
-0.07239147 -0.10936452 -0.0912346 -0.50641865 -0.1610133 0.09653042 0.16029815 -0.16463749
-0.29088247 -0.084272 0.1337866 -0.053767864 0.009233913 0.041985154 -0.21475247 -0.017175997
0.03482316 0.008812426 -0.29455784 -0.3460443 0.045649547 0.10348429 -0.14896668 -0.08753823
-0.08754942 -0.44766206 -0.07690064 -0.37948403 -0.9829313 -0.0036118557 0.03529064 -0.032159705
0.0065015214 -0.044646274 -0.1509805 0.04670101 -0.053703923 -0.16770406 -0.13772103 0.0032494895
0.52827895 -0.16649611 0.0041985423 -0.08245932 -0.13136 -0.03886335 -0.084025815 -0.197665
0.035327952 0.20070517 0.16129827 -0.017624427 0.008631834 0.023351368 0.06296235 0.098993585
-0.18204011 -0.3199523 -0.03712517 0.13527752 0.32560727 -0.21631736 -0.09048027 -0.008597457
0.096151285 0.14704835 -0.01087275 -0.009170207 0.0036795684 0.0012539657 -0.013985491 0.0025198732
-0.003681627 -0.08002423 -0.04160117 -0.03392483 0.015538836 0.1776232 0.028902708 0.04488931
0.024130313 0.07353345 0.024449725 -0.07729044 -0.060303915 -0.060427684 -0.02371321 0.030090356
-0.039332803 -0.007212938 -0.004913606 0.01883668 0.023872918 -0.08720799 -0.13050748 -0.059065882
-0.037004385 0.045453463 0.24306577 -0.22034992 -0.13497369 -0.29778478 -1.552262 0.008701036
0.0056857876 0.07343975 0.053773526 0.02546355 -0.17001423 0.0036008882 0.12706524 -0.3636322
-0.24233851 -0.11651971 -1.0535089 -0.02084003 0.052257948 -0.0431376 -0.06555181 0.11131826
-0.019514477 -0.06442238 0.003530017 -0.0021193447 -0.053275168 -0.1840481 -0.07453125 0.00035535917
-0.07025651 0.06110811 0.07712841 0.12853225 -0.0065445076 -0.05006993 -0.11714016 0.14439225
0.21552896 0.065707974 -0.18901919 -0.4435351 -0.022334646 0.0036284893 -0.025060283 -0.07989363
-0.024990302 0.05057142 0.13455305 0.18080287 -0.3758131 -0.2750728 -0.4094961 -1.3489305
0.11300685 0.111160755 0.09546025 0.08414975 -0.06292118 -0.057046626 -0.095147 -0.10806131
-0.07293239 0.04186911 -0.010253667 -0.10155749 -0.038070563 -0.0417033 -0.087985896 0.08316366
0.19772765 0.021637578 0.008771297 -0.24838299 0.0070456164 0.073100835 -0.060639817 -0.12832344
00000000: 9bc1 b73d 6e1f 933d 1aa7 683d d8b6 983d
00000010: 12d2 01bd 8fb7 cb3d b4c8 03bf 7e43 e7bd
00000020: e6a0 22be f2d1 8ebf fbf0 df3d 09f5 5f3d
00000030: 8028 a33d 375b 853c 7761 743c 9509 223c
00000040: 7560 033d 0045 14bd 21fe a2bd 9f06 ab3c
00000050: b01d 6abd 5adc d43c 15e7 e9bd 5a18 acbc
00000060: 5547 bebd 2256 5dbd f52d 173c cc98 3bbe
00000070: 21bc e7bd f731 1dbf 1b21 a63d 4445 fa3d
00000080: 536d 873c e6ab eb3d bd67 1fbe c05b d13c
00000090: b1f5 dd3b 796b 393d cb8a 053d adc5 2fbc
000000a0: a66d 2abd fefe 9cbd 2fad 863d c0ff 06bb
000000b0: a155 cf3d d8b3 0e3e 20d5 3c3e fe30 4c3e
000000c0: 0415 f0be 78d6 69be aaef 7dbe 8e2f 90bf
000000d0: 8c0d 92bc 5430 7a3d 37cb 0c3d 0318 4e3d
000000e0: da77 4c3d 9c00 60bd 6cfc 343e c953 93bd
000000f0: 523a 26be dd68 cebe f5c3 25bd 2844 b0bc
00000100: f5a9 113c d162 1c3e c760 123e b79f e7bd
00000110: 1e22 b8bd c8d7 0abd 222a b83d d73c 3f3e
00000120: b1b6 33bb 2140 89bc 4e77 93be 8dfb 19be
00000130: bb7e b2bd e430 403c 3aa8 263d eabb de3d
00000140: fb41 94bd 81fa dfbd 35d9 babd a7a4 01bf
00000150: ace0 24be beb1 c53d 3325 243e bb96 28be
00000160: 8cee 94be cc96 acbd 5bff 083e b13b 5cbd
00000170: d749 173c a0f8 2b3d 12e8 5bbe adb4 8cbc
00000180: bba2 0e3d fe61 103c 49d0 96be b82c b1be
00000190: 05fb 3a3d 92ef d33d b98a 18be 3e47 b3bd
000001a0: 1c4d b3bd f633 e5be 157e 9dbd bb4b c2be
000001b0: 63a1 7bbf e2b4 6cbb eb8c 103d e5b9 03bd
000001c0: b70a d53b 03df 36bd a29a 1abe 8f49 3f3d
000001d0: a5f8 5bbd 9dba 2bbe be06 0dbe 63f5 543b
000001e0: 4a3d 073f f57d 2abe ed93 893b 6fe0 a8bd
000001f0: 3c83 06be 2d2f 1fbd ba15 acbd b268 4abe
00000200: 0bb4 103d a885 4d3e 602b 253e 1a61 90bc
00000210: 896c 0d3c 5e4b bf3c 68f2 803d 26bd ca3d
00000220: b968 3abe cad0 a3be 9010 18bd 3186 0a3e
00000230: ffb5 a63e 4c82 5dbe b84d b9bd 59dc 0cbc
00000240: f7ea c43d d893 163e 9e23 32bc a33e 16bc
00000250: ea24 713b 1b5c a43a 6723 65bc 7524 253b
00000260: 7447 71bb bee3 a3bd fd65 2abd c3f4 0abd
00000270: 9a96 7e3c dbe2 353e 5fc5 ec3c dadd 373d
00000280: efac c53c b598 963d ca4a c83c 734a 9ebd
00000290: 3d01 77bd 0583 77bd 3542 c2bc 0d80 f63c
000002a0: 6f1b 21bd 825a ecbb 5102 a1bb 624f 9a3c
000002b0: 2391 c33c 1a9a b2bd c1a3 05be 11ef 71bd
000002c0: e991 17bd 692d 3a3d 3ce6 783e 69a3 61be
000002d0: 8b36 0abe 3f77 98be 85b0 c6bf ca8e 0e3c
000002e0: d84f ba3b 9467 963d a141 5c3d ef98 d03c
000002f0: 3618 2ebe e1fc 6b3b 641d 023e 002e babe
00000300: 9627 78be e3a1 eebd 61d9 86bf b6b8 aabc
00000310: 6e0c 563d 0db1 30bd 0740 86bd d4fa e33d
00000320: d3dc 9fbc e1ef 83bd dc57 673b b4e4 0abb
00000330: 1037 5abd 1b77 3cbe d7a3 98bd 804f ba39
00000340: a5e2 8fbd 7f4c 7a3d 80f5 9d3d f59d 033e
00000350: 4f73 d6bb 2016 4dbd 2ee7 efbd 90db 133e
00000360: a0b3 5c3e e791 863d 3f8e 41be 0817 e3be
00000370: 26f7 b6bc f3cb 6d3b 394b cdbc 469f a3bd
00000380: 76b8 ccbc fa23 4f3d 46c8 093e 6324 393e
00000390: 936a c0be 58d6 8cbe 79a9 d1be c1a9 acbf
000003a0: 2370 e73d 40a8 e33d aa80 c33d b456 ac3d
000003b0: d2dc 80bd b9a9 69bd 6edc c2bd 404f ddbd
000003c0: 945d 95bd f27e 2b3d fffe 27bc 60fd cfbd
000003d0: e1ef 1bbd 14d1 2abd f331 b4bd b551 aa3d
000003e0: 1e79 4a3e 4a41 b13c 7cb5 0f3c 1c58 7ebe
000003f0: eade e63b e4b5 953d 7561 78bd 3867 03be

fc1.bias f4 [128]
0.052080393 -0.066946104 -0.016561335 -0.21635018 0.1365363 -0.08393536 0.0370013 -0.16750364
-0.14481907 -0.20353717 -0.22575311 -0.076460406 -0.036666147 0.057044312 -0.055128507 0.099343136
-0.09219008 0.07284641 0.043683182 -0.17739962 -0.15975173 0.09075894 -0.0021745546 -0.0783297
-0.0072306767 -0.15430798 -0.036836423 -0.18321733 0.003942273 -0.077226415 -0.07428017 -0.09259139
-0.07680962 -0.018167986 -0.1971613 -0.14865668 -0.14740746 0.04584887 0.08549349 -0.2211392
0.00040571843 -0.0059342547 -0.04406783 -0.04754405 0.016090937 0.13447596 -0.074468784 -0.15138753
-0.16290586 -0.12651286 -0.024595007 -0.038312048 0.023833275 -0.18763351 -0.056615416 -0.09455614
-0.05705936 0.036645167 -0.14301154 -0.025759049 -0.12161121 -0.18367882 -0.14868248 0.045735124
-0.07672289 0.082734525 -0.12708308 -0.021778634 0.05481549 -0.056170184 -0.05119027 0.029786443
-0.010735794 0.054827686 -0.17186132 0.09273792 -0.17158002 -0.085422404 0.00078046526 -0.022155903
0.13186164 -0.112771295 -0.21508032 0.045751214 -0.16637811 0.03815019 -0.02240807 0.040316477
-0.03803335 -0.1256436 -0.1621459 -0.13067539 -0.084608786 -0.15216269 0.0859493 0.05203516
-0.03354001 -0.16068375 0.026932308 -0.05393558 0.07545704 0.12488503 -0.11482883 -0.15758543
0.08503199 -0.16322662 0.040054295 -0.18937787 -0.021177068 -0.077769056 -0.13834526 0.03725778
-0.21849425 -0.14171255 -0.0520077 0.033280727 0.058313433 0.06365489 0.065298855 0.08411202
-0.06707084 -0.08268423 -0.06485746 -0.016945275 -0.053569727 -0.009365913 0.016049901 -0.021085741
00000000: 4052 553d 0a1b 89bd a3ab 87bc e78a 5dbe
00000010: 2cd0 0b3e 4de6 abbd ad8e 173d 1386 2bbe
00000020: 734b 14be 0c6c 50be d32b 67be 4697 9cbd
00000030: 3e2f 16bd 4ca7 693d 6ece 61bd 6a74 cb3d
00000040: 27ce bcbd 8030 953d 23ed 323d 3fa8 35be
00000050: f595 23be d3df b93d f982 0ebb 526b a0bd
00000060: 50ef ecbb e902 1ebe cae1 16bd 539d 3bbe
00000070: 2f2e 813b e228 9ebd 3420 98bd 8ea0 bdbd
00000080: 5d4e 9dbd 07d5 94bc a7e4 49be 7539 18be
00000090: fbf1 16be 06cc 3b3d 3617 af3d 5072 62be
000000a0: 9bb6 d439 2374 c2bb 7880 34bd 8dbd 42bd
000000b0: 24d1 833c 11b4 093e 1783 98bd 5505 1bbe
000000c0: cbd0 26be 968c 01be 787b c9bc 18ed 1cbd
000000d0: 003e c33c 0023 40be 91e5 67bd a6a6 c1bd
000000e0: 13b7 69bd 3e19 163d 9e71 12be a404 d3bc
000000f0: 4c0f f9bd 4d16 3cbe 3840 18be c154 3b3d
00000100: e420 9dbd b870 a93d 1122 02be 1b69 b2bc
00000110: 3586 603d b512 66bd e3ac 51bd b302 f43c
00000120: 2fe5 2fbc ff92 603d 6afc 2fbe 61ed bd3d
00000130: acb2 2fbe f1f1 aebd 2398 4c3a 4c80 b5bc
00000140: bd06 073e a3f4 e6bd 043e 5cbe a065 3b3d
00000150: 065f 2abe 6043 1c3d 2191 b7bc e422 253d
00000160: dcc8 1bbd b7a8 00be 9309 26be c5cf 05be
00000170: 5f47 adbd 89d0 1bbe 3006 b03d d222 553d
00000180: 4061 09bd 488a 24be 25a1 dc3c 8eeb 5cbd
00000190: 3889 9a3d b9c3 ff3d 612b ebbd 135e 21be
000001a0: 4125 ae3d e124 27be f90f 243d 46ec 41be
000001b0: 887b adbc 6245 9fbd 61aa 0dbe 9d9b 183d
000001c0: f5bc 5fbe 181d 11be 0706 55bd 5f51 083d
000001d0: 11da 6e3d 7f5d 823d 68bb 853d ec42 ac3d
000001e0: 705c 89bd 5956 a9bd fdd3 84bd d1d0 8abc
000001f0: ee6b 5bbd 7d73 19bc 157b 833c 01bc acbc

fc2.weight f4 [128, 128]
0.075785026 0.16214454 0.012658508 -0.048184473 0.048361853 0.006239354 0.064001635 0.05045038
0.09140734 0.011200857 0.044835273 -0.007969419 0.08300182 0.11302803 0.0044099507 0.012625298
0.09542585 -0.027884213 0.008540854 -0.07237698 -0.044640522 0.103082776 -0.08308536 0.29413435
0.19739185 -0.11650908 0.10938535 0.08310557 0.10918387 0.00522002 -0.054804612 0.16953585
-0.036245957 0.16111277 0.03633823 -0.018962717 -0.07067777 0.0418782 -0.013652217 0.08060638
-0.023333881 0.01663896 0.23921205 -0.08608816 -0.07895203 0.055252586 -0.022985835 0.006259151
0.15115102 -0.037733067 0.006911925 -0.025358737 0.023401411 -0.027909877 -0.041742347 -0.09391217
-0.043993708 0.009085658 -0.05832023 0.119937986 -0.0070672175 0.19943447 0.11477792 0.048388775
-0.20044182 -0.045445796 0.01800566 -0.082989946 0.037516885 -0.0003372828 -0.057046678 -0.059465654
-0.008306718 0.038903914 0.038838334 -0.06867919 -0.00021148263 -0.042842135 0.0023836629 0.027847368
0.24613944 0.0028490804 -0.06970594 0.003072402 0.0032189945 0.033285044 0.018128917 -0.028099112
0.03036774 0.06770407 0.025824385 0.057009608 0.23108841 0.013082133 0.08030627 0.025337532
0.0025680286 -6.059424e-05 -0.01611332 -0.034413792 0.19977826 -0.091536425 0.023799421 0.08195073
0.011052146 -0.026651157 0.022626765 0.009398157 0.0771823 0.022572903 0.026718087 0.025916003
0.011390394 -0.04888058 0.08855969 0.14242055 -0.047643654 0.19004184 0.098703295 -0.057503432
-0.034595996 -0.117707446 0.08193608 0.0033498376 0.07304119 -0.071998104 0.14885369 0.17827007
0.013308162 0.17308654 -0.02028706 -0.035497688 0.13032393 0.0119714765 -0.035680994 0.024634533
0.020303065 0.022043463 0.079244085 -0.0540455 0.011304213 -0.03039453 0.04804181 -0.0070347246
0.03846358 -0.0048894677 0.011557749 -0.07202817 0.09412868 0.091666825 -0.17670137 -0.07802491
0.14506559 0.04163023 0.06069584 0.028896943 0.041654825 -0.016791683 -0.02192242 0.16210897
0.03841116 0.031467363 0.06779437 -0.19992343 0.0073054745 0.09097309 -0.019572258 0.24963367
0.011603191 0.08534534 -0.1338033 0.05138418 0.02658114 0.11560214 -0.027983036 -0.026893577
-0.123466395 0.087758094 0.08045003 0.06430838 0.022570288 0.0053133783 0.0051149153 -0.04267488
0.049291357 0.031076152 0.008704406 0.015082857 -0.04105263 0.024891395 0.056690063 -0.031587765
-0.15926833 -0.083070435 0.01683321 -0.04327827 0.096687496 0.01160003 0.047805995 -0.03791585
-0.0644407 0.038742278 0.08637136 0.0332543 -0.0038443932 0.019646088 0.0048846435 -0.012430921
0.18471205 0.04104138 -0.07360078 0.021073049 0.0148905525 0.14051025 -0.018799834 0.024223955
0.09250332 -0.063582584 -0.1130029 0.06429862 0.064104244 0.031967483 -0.011385517 -0.057521857
0.014168572 -0.04418759 -0.0067935702 -0.03293672 0.19214763 -0.029995587 -0.08672689 0.024711428
0.0051041623 -0.0010236904 -0.09064532 -0.054391734 0.08206387 -0.014221832 0.026441071 -0.010245201
0.0010304421 -0.008468413 0.004560065 0.13174964 0.06192927 0.13298605 0.025577342 0.0366878
0.15629503 -0.005973507 0.09939594 -0.043257933 0.22826105 0.12388969 0.0068412432 0.18106125
00000000: 2e35 9b3d 3809 263e a165 4f3c 155d 45bd
00000010: 1417 463d 7f73 cc3b 4a13 833d 0fa5 4e3d
00000020: c533 bb3d cd83 373c 31a5 373d 2a92 02bc
00000030: dcfc a93d 3d7b e73d 5981 903b 57da 4e3c
00000040: a16e c33d 6f6d e4bc f0ee 0b3c 623a 94bd
00000050: fbd8 36bd 101d d33d a828 aabd c798 963e
00000060: 1721 4a3e 509c eebd 6d05 e03d 4133 aa3d
00000070: cb9b df3d b40c ab3b cd7a 60bd ce9a 2d3e
00000080: a476 14bd bffa 243e 65d7 143d b357 9bbc
00000090: 82bf 90bd 7a88 2b3d 8cad 5fbc f514 a53d
000000a0: b226 bfbc 6e4e 883c 01f4 743e fd4e b0bd
000000b0: 9ab1 a1bd 8950 623d ca4c bcbc 9019 cd3b
000000c0: 55c7 1a3e fd8d 1abd 6e7d e23b 20bd cfbc
000000d0: 51b4 bf3c 41a3 e4bc 06fa 2abd 0655 c0bd
000000e0: bf32 34bd 03dc 143c 32e1 6ebd 0ca2 f53d
000000f0: 1e94 e7bb 8d38 4c3e b010 eb3d 4f33 463d
00000100: 9f40 4dbe 5f25 3abd 9b80 933c a2f6 a9bd
00000110: 4eab 193d 55d5 b0b9 c7a9 69bd 4292 73bd
00000120: e718 08bc b659 1f3d f214 1f3d ada7 8cbd
00000130: 70c1 5db9 3c7b 2fbd 3a37 1c3b 2a20 e43c
00000140: fa0b 7c3e a3b7 3a3b fdc1 8ebd 5a5a 493b
00000150: c4f5 523b e655 083d 1883 943c 1c30 e6bc
00000160: c4c5 f83c 6ea8 8a3d a98d d33c e882 693d
00000170: 71a2 6c3e 7156 563c 9d77 a43d a890 cf3c
00000180: 5f4c 283b 9226 7eb8 1500 84bc 7af5 0cbd
00000190: ac92 4c3e 7377 bbbd 01f7 c23c c9d5 a73d
000001a0: 0f14 353c 8753 dabc c45b b93c bafa 193c
000001b0: c111 9e3d cfea b83c e4df da3c cc4d d43c
000001c0: c69e 3a3c 0137 48bd c85e b53d b1d6 113e
000001d0: fe25 43bd 549a 423e f424 ca3d b888 6bbd
000001e0: 88b4 0dbd 9a10 f1bd 1ace a73d f388 5b3b
000001f0: 9f96 953d be73 93bd 1a6d 183e 6e8c 363e
00000200: 7a0a 5a3c 993d 313e 0c31 a6bc 0666 11bd
00000210: a373 053e 0324 443c 3c26 12bd 5cce c93c
00000220: 9d52 a63c 7e94 b43c b94a a23d d05e 5dbd
00000230: 4e35 393c f3fd f8bc 7dc7 443d 8c83 e6bb
00000240: fd8b 1d3d d437 a0bb b65c 3d3c 8183 93bd
00000250: 8ac6 c03d d1bb bb3d 34f1 34be 86cb 9fbd
00000260: 138c 143e 7684 2a3d 339c 783d 48b9 ec3c
00000270: 409e 2a3d b68e 89bc a696 b3bc e5ff 253e
00000280: 0555 1d3d ece3 003d c6d7 8a3d bab8 4cbe
00000290: c362 ef3b 1950 ba3d 0056 a0bc f89f 7f3e
000002a0: 4f1b 3e3c 8ac9 ae3d bb03 09be 3878 523d
000002b0: b1c0 d93c d1c0 ec3d ae3c e5bc eb4f dcbc
000002c0: f3db fcbd 84ba b33d fcc2 a43d 1db4 833d
000002d0: 53e5 b83c d91b ae3b 059b a73b dbcb 2ebd
000002e0: bce5 493d 6a93 fe3c ed9c 0e3c 161e 773c
000002f0: cd26 28bd 0ae9 cb3c d733 683d 2c62 01bd
00000300: 3d17 23be d520 aabd cde5 893c 8e44 31bd
00000310: 1804 c63d 0d0e 3e3c 38d0 433d a64d 1bbd
00000320: 7cf9 83bd 39b0 1e3d 78e3 b03d a935 083d
00000330: 37f2 7bbb d5f0 a03c 5c0f a03b 10ab 4bbc
00000340: 2825 3d3e 021b 283d 01bc 96bd 63a1 ac3c
00000350: 81f7 733c ebe1 0f3e 1c02 9abc 5171 c63c
00000360: 6172 bd3d 9637 82bd 106e e7bd ffae 833d
00000370: 1649 833d 56f0 023d 528a 3abc 0a9c 6bbd
00000380: 4c23 683c 0cfe 34bd 999c debb a7e8 06bd
00000390: 59c2 443e 4eb9 f5bc de9d b1bd 9f6f ca3c
000003a0: d140 a73b 5a2d 86ba 41a4 b9bd dec9 5ebd
000003b0: 1a11 a83d b002 69bc f29a d83c 7ddb 27bc
000003c0: e60f 873a 19bf 0abc 996c 953b 61e9 063e
000003d0: 8ca9 7d3d 7f2d 083e 9387 d13c f245 163d
000003e0: ce0b 203e 69bd c3bb 1990 cb3d 3b2f 31bd
000003f0: 44bd 693e e1b9 fd3d 822c e03b 1f68 393e

fc2.bias f4 [128]
0.08817996 0.12669668 0.050722625 0.109099016 0.151453 0.14756966 0.12404886 0.104659006
0.09416163 -0.06831086 0.023416007 0.09462185 0.1366794 -0.08540203 0.0961971 0.0031932173
0.055869043 0.17657468 0.13088213 0.15075979 -0.124882326 0.13349882 0.08940876 0.10292043
0.17877078 0.15947148 0.08366808 0.029507205 0.10251717 0.16422983 0.20157726 0.18111087
0.0085486695 -0.281549 0.15150785 0.025973197 0.13729551 0.105744965 0.12980148 -0.035672493
0.16878057 0.09433435 0.20194852 0.1204819 -0.008487528 0.1131876 0.08180652 0.1149877
-0.13454303 0.16141011 -0.1519687 0.001472541 0.116478175 0.10938274 0.08002482 0.16470249
0.13475554 0.09079734 0.007800327 -0.057922024 0.18490943 -0.06613639 -0.052046344 0.04735225
0.122981586 -0.091468595 0.1780968 -0.31480742 0.1446929 -0.0187103 0.014862002 0.1038418
0.014211054 0.14718623 -0.11908683 0.09288516 0.05169432 -0.18132159 0.15225855 0.124220155
0.0038257402 -0.08672125 0.17008953 0.10446094 0.1775338 0.15864922 0.110665746 0.16610286
-0.0047404994 0.03855029 0.15550764 0.054433543 0.08834594 0.16354555 0.02501886 0.005818657
0.109626435 0.119616084 0.016936429 -0.039041437 0.11573641 0.19183066 0.040911753 0.15279971
-0.074320965 0.01264992 -0.11287862 0.020819252 0.08536359 -0.065584004 0.13834782 -0.11758909
0.1738486 0.118033215 0.11439776 0.13801683 -0.0323836 0.16114992 0.04998468 0.1862644
-0.03347096 0.10543497 -0.037459902 0.0246685 0.10687686 0.14356996 -0.36183673 0.17583084
00000000: b297 b43d c6bc 013e 87c2 4f3d 4e6f df3d
00000010: 7f16 1b3e 801c 173e 540d fe3d 7657 d63d
00000020: d0d7 c03d 90e6 8bbd edd2 bf3c 1ac9 c13d
00000030: aff5 0b3e 42e7 aebd fc02 c53d 4c45 513b
00000040: f0d6 643d fecf 343e f705 063e c660 1a3e
00000050: 4ec2 ffbd eab3 083e f11b b73d f2c7 d23d
00000060: b00f 373e 7e4c 233e 2c5a ab3d 18b9 f13c
00000070: 86f4 d13d dd2b 283e 456a 4e3e 2175 393e
00000080: b80f 0c3c 3127 90be e024 1b3e bec5 d43c
00000090: 3297 0c3e d190 d83d aeea 043e 521d 12bd
000000a0: d0d4 2c3e 5e32 c13d 98cb 4e3e 37bf f63d
000000b0: 460f 0bbc e7ce e73d 2d8a a73d ac7e eb3d
000000c0: a6c5 09be b148 253e af9d 1bbe 4702 c13a
000000d0: 1c8c ee3d 0f04 e03d 0ee4 a33d c5a7 283e
000000e0: 5bfd 093e f5f3 b93d e399 ff3b a53f 6dbd
000000f0: e658 3d3e 8472 87bd 8c2e 55bd 6ff4 413d
00000100: c5dd fb3d e353 bbbd 025f 363e 702e a1be
00000110: 602a 143e 5846 99bc c17f 733c 02ab d43d
00000120: 7bd5 683c fdb7 163e cce3 f3bd 933a be3d
00000130: 6cbd 533d 5eac 39be aae9 1b3e 2367 fe3d
00000140: 45b9 7a3b e99a b1bd f32b 2e3e 9eef d53d
00000150: 6ccb 353e f174 223e b9a4 e23d de16 2a3e
00000160: 3156 9bbb e9e6 1d3d 653d 1f3e b5f5 5e3d
00000170: b7ee b43d 7c78 273e 5af4 cc3c 6faa be3b
00000180: d383 e03d 47f9 f43d 44be 8a3c eae9 1fbd
00000190: 3607 ed3d 426f 443e 1593 273d 8777 1c3e
000001a0: 9735 98bd 9c41 4f3c e82c e7bd 238d aa3c
000001b0: 1bd3 ae3d e850 86bd 0dab 0d3e 8cd2 f0bd
000001c0: 5e05 323e 66bb f13d 5f49 ea3d 4954 0d3e
000001d0: aaa4 04bd 7c04 253e bcbc 4c3d 18bc 3e3e
000001e0: d818 09bd 4aee d73d 8e6f 19bd 9815 ca3c
000001f0: 41e2 da3d 0104 133e aa42 b9be 000d 343e

fc3.weight f4 [4, 128]
0.046097178 0.051120244 0.08907259 0.0428618 0.054687075 0.038621996 0.09126209 0.055151384
0.07843875 0.024180751 -0.023493135 0.053246673 0.0473524 0.0077167135 0.055968147 -0.15408833
0.048363414 0.10114684 0.04692176 0.07679156 -0.03479767 0.060317546 -0.071112745 -0.250208
-0.16780597 0.07946319 0.10186153 -0.11676186 0.054205015 0.1007176 -0.12591645 0.05885661
-0.07140996 -0.06582192 0.07280515 0.050596282 0.041631736 0.04518124 0.050536387 -0.06777803
0.080455646 -0.13656893 0.040356148 0.055467136 -0.24052918 -0.22520788 0.044328388 0.03057893
0.03889742 0.052104086 -0.07866218 -0.09327727 0.07405986 0.06932545 0.042867523 0.06019371
0.06800374 0.07970096 -0.1697811 -0.30352017 0.067131996 0.015957605 -0.03347731 0.08750592
0.08087091 -0.06495069 0.057038933 -0.23608741 0.07060244 -0.28676957 0.047830537 0.07510769
-0.066005826 0.05953322 -0.039450962 -0.14815553 0.047642477 -0.050370436 0.038208295 -0.12811545
0.12297537 -0.06921789 0.05842762 0.043963566 -0.21173747 0.084267974 -0.08584856 0.08911359
-0.115586065 -0.11187119 0.067896076 0.08282479 -0.04198903 -0.23262046 0.11246074 -0.12728517
0.053507727 0.08443717 0.06851034 -0.049386214 0.041499652 0.078264676 0.04300701 0.039162617
-0.14854895 0.08819531 0.049703788 0.09756733 0.06544908 -0.006467922 0.058570288 -0.026403591
0.06313871 -0.2009376 0.0441225 0.043839436 -0.06853739 0.06559814 -0.052235194 0.04105537
-0.027763862 0.096441686 0.005790487 0.119427375 0.045046136 0.041677848 -0.2204573 0.040809706
0.046807688 0.049938034 0.08881109 0.05129366 0.06340052 0.058519978 0.13067228 0.047025796
0.05963934 0.23485316 0.040977363 0.056634996 0.055118587 -0.09434143 0.052173644 0.046384424
0.05432361 0.12523262 0.0623352 0.054271895 0.008599125 0.06514348 -0.1216711 -0.014250514
-0.2090648 0.095374145 0.041357767 -0.0424384 0.06270719 0.041231446 -0.2177539 0.047064696
0.13733369 0.10256392 0.088885546 0.062359553 0.03687895 0.059315935 0.06010998 -0.0075435163
0.06924397 0.04829324 0.06075135 0.045495555 0.043497026 -0.052788004 0.055163797 0.0433949
-0.034451056 0.04295504 0.023887197 -0.08746026 0.039947566 0.10347464 0.06406089 0.035197396
0.060819842 0.09260492 0.16087097 0.14411534 0.08087524 0.08249436 0.2225681 0.07232922
0.08430739 -0.035753924 0.08497083 -0.13966529 0.07476206 -0.016454337 0.2398822 0.057667796
-0.043767195 0.061567675 -0.032023482 0.022248317 0.14240664 -0.049822472 0.045839146 -0.0153036555
0.09528384 -0.13847491 0.051365267 0.055056136 -0.2256782 0.06681398 0.05010194 0.09647585
-0.072755866 0.006191202 0.09899106 0.052088827 0.015816482 -0.1456648 0.11126418 -0.11503297
0.067108124 0.09199819 0.034559462 0.04105831 0.055333592 0.07141014 -0.009603393 0.05348256
-0.05290538 0.097340375 0.05416756 0.101119794 0.039496515 0.027367134 0.064696886 -0.07157745
0.07933692 -0.019909173 0.053564154 0.041859798 -0.032838058 0.07618035 0.112155676 0.049941033
-0.048895057 0.0722333 -0.020929016 0.04264151 0.046531104 0.061266076 -0.1841992 0.05651692
00000000: 65d0 3c3d 7663 513d b16b b63d db8f 2f3d
00000010: 8eff 5f3d 1932 1e3d 9ee7 ba3d 6be6 613d
00000020: 7fa4 a03d b616 c63c ad74 c0bc 2f19 5a3d
00000030: 97f4 413d 7cdc fc3b db3e 653d 55c9 1dbe
00000040: b718 463d 1326 cf3d 0831 403d e544 9d3d
00000050: 0088 0ebd 880f 773d 8fa3 91bd 431b 80be
00000060: 54d5 2bbe 99bd a23d c79c d03d d820 efbd
00000070: 1406 5e3d 0745 ce3d 3ef0 00be a113 713d
00000080: 633f 92bd a5cd 86bd de1a 953d 0c3e 4f3d
00000090: 0a86 2a3d f70f 393d 3eff 4e3d 35cf 8abd
000000a0: eec5 a43d bad8 0bbe 7d4c 253d 8231 633d
000000b0: 484d 76be e59c 66be af91 353d aa80 fa3c
000000c0: e752 1f3d 186b 553d a319 a1bd 2708 bfbd
000000d0: b2ac 973d 80fa 8d3d db95 2f3d ae8d 763d
000000e0: 8b45 8b3d 423a a33d 19db 2dbe ff66 9bbe
000000f0: 807c 893d 86b9 823c 811f 09bd 4e36 b33d
00000100: a69f a53d de04 85bd a8a1 693d e6c0 71be
00000110: 0398 903d 76d3 92be f4e9 433d 10d2 993d
00000120: 102e 87bd 1bd9 733d 5597 21bd 15b6 17be
00000130: c224 433d 3b51 4ebd 4d80 1c3d b230 03be
00000140: 83da fb3d 1cc2 8dbd cd51 6f3d 2413 343d
00000150: b5d1 58be b094 ac3d 5fd1 afbd 3081 b63d
00000160: 63b8 ecbd b91c e5bd 190d 8b3d 0ba0 a93d
00000170: b0fc 2bbd 0f34 6ebe d151 e63d 0b57 02be
00000180: eb2a 5b3d 65ed ac3d 264f 8c3d 3349 4abd
00000190: 8afb 293d 3b49 a03d 1e28 303d fb68 203d
000001a0: 371d 18be be9f b43d 3396 4b3d 61d1 c73d
000001b0: 2b0a 863d ddf0 d3bb 66e7 6f3d 584c d8bc
000001c0: de4e 813d 96c2 4dbe cbb9 343d fb90 333d
000001d0: 555d 8cbd 5158 863d 92f4 55bd ad29 283d
000001e0: 0a71 e3bc 3883 c53d 20be bd3b 5796 f43d
000001f0: 4c82 383d 64b6 2a3d 8fbf 61be 1428 273d
00000200: 6bb9 3f3d d38b 4c3d 97e2 b53d 4d19 523d
00000210: 22d8 813d a5b2 6f3d f4ce 053e 1f9e 403d
00000220: 6148 743d 597d 703e e1d7 273d 19fa 673d
00000230: 07c4 613d 1436 c1bd 08b4 553d 98fd 3d3d
00000240: 6f82 5e3d fb3c 003e 3253 7f3d 354c 5e3d
00000250: 58e3 0c3c f269 853d b32e f9bd fd7a 69bc
00000260: 1515 56be 8553 c33d c366 293d e3d3 2dbd
00000270: a16c 803d 4ee2 283d e1fa 5ebe e9c6 403d
00000280: 34a1 0c3e 080d d23d a009 b63d bb6c 7f3d
00000290: 620e 173d 44f5 723d e235 763d 9a2f f7bb
000002a0: c8cf 8d3d 22cf 453d 68d6 783d 8c59 3a3d
000002b0: f029 323d 3c38 58bd 6ff3 613d dabe 313d
000002c0: 8d1c 0dbd a0f1 2f3d 15af c33c 5d1e b3bd
000002d0: 0fa0 233d 83ea d33d 5b32 833d 252b 103d
000002e0: 3a1e 793d a6a7 bd3d 5cbb 243e f992 133e
000002f0: eba1 a53d cef2 a83d e4e8 633e 5821 943d
00000300: 5aa9 ac3d b572 12bd 3005 ae3d 6b04 0fbe
00000310: da1c 993d 3fcb 86bc aea3 753e 1135 6c3d
00000320: 3b45 33bd 632e 7c3d 0e2b 03bd 1a42 b63c
00000330: 0cd3 113e a612 4cbd d4c1 3b3d 2fbc 7abc
00000340: 2d24 c33d 5ecc 0dbe 6364 523d 8b82 613d
00000350: 3018 67be c5d5 883d b137 4d3d 2195 c53d
00000360: 0701 95bd 91df ca3b d3bb ca3d 185b 553d
00000370: 9191 813c 2729 15be 79de e33d 6896 ebbd
00000380: fc6f 893d 8c69 bc3d 398e 0d3d c22c 283d
00000390: 7aa5 623d 7b3f 923d 8d57 1dbc 8710 5b3d
000003a0: 50b3 58bd 645a c73d cede 5d3d e517 cf3d
000003b0: 19c7 213d 0a31 e03c cd7f 843d 3397 92bd
000003c0: 657b a23d 9018 a3bc 1666 5b3d 2e75 2b3d
000003d0: 3381 06bd 7104 9c3d e0b1 e53d f88e 4c3d
000003e0: 2f46 48bd 0def 933d 5473 abbc dda8 2e3d
000003f0: 6697 3e3d 23f2 7a3d b79e 3cbe 497e 673d

fc3.bias f4 [4]
0.9829431 0.8368745 0.90026575 0.90241295
00000000: 29a2 7b3f 683d 563f d177 663f 8904 673f
